…
 they are explicitly allowlisted by the user via `torch.serialization.add_safe_globals`. We recommend you start setting `weights_only=True` for any use case where you don't have full control of the loaded file. Please open an issue on GitHub for any issues related to this experimental feature.
  ckpt = torch.load(backbone_path)
[01:37:53.383834] Initializing class-specific contexts
[01:37:53.384154] Initial context: "X X X X X X X X"
[01:37:53.384172] Number of context words (tokens): 8
[01:37:53.684947] VitaCLIP(
  (visual): CLIPVisionEncoder(
    (patch_embed): ImagePatchEmbed2D(
      (proj): Conv2d(3, 768, kernel_size=(16, 16), stride=(16, 16))
    )
    (blocks): ModuleList(
      (0-11): 12 x TransformerEncoderLayer(
        (attn): Attention(
          (q_proj): Linear(in_features=768, out_features=768, bias=True)
          (k_proj): Linear(in_features=768, out_features=768, bias=True)
          (v_proj): Linear(in_features=768, out_features=768, bias=True)
          (out_proj): Linear(in_features=768, out_features=768, bias=True)
        )
        (mlp): Sequential(
          (fc1): Linear(in_features=768, out_features=3072, bias=True)
          (act): QuickGELU()
          (dropout): Dropout(p=0.0, inplace=False)
          (fc2): Linear(in_features=3072, out_features=768, bias=True)
        )
        (norm1): LayerNorm((768,), eps=1e-05, elementwise_affine=True)
        (norm2): LayerNorm((768,), eps=1e-05, elementwise_affine=True)
        (cls_proj): Linear(in_features=768, out_features=768, bias=True)
        (summary_ln): LayerNorm((768,), eps=1e-05, elementwise_affine=True)
        (summary_attn_layer): Attention(
          (q_proj): Linear(in_features=768, out_features=768, bias=True)
          (k_proj): Linear(in_features=768, out_features=768, bias=True)
          (v_proj): Linear(in_features=768, out_features=768, bias=True)
          (out_proj): Linear(in_features=768, out_features=768, bias=True)
        )
      )
    )
    (ln_pre): LayerNorm((768,), eps=1e-05, elementwise_affine=True)
    (ln_post): LayerNorm((768,), eps=1e-05, elementwise_affine=True)
  )
  (textual): CLIPTextEncoder(
    (transformer): Transformer(
      (resblocks): ModuleList(
        (0-11): 12 x ResidualAttentionBlock(
          (attn): MultiheadAttention(
            (out_proj): NonDynamicallyQuantizableLinear(in_features=512, out_features=512, bias=True)
          )
          (ln_1): LayerNorm((512,), eps=1e-05, elementwise_affine=True)
          (mlp): Sequential(
            (c_fc): Linear(in_features=512, out_features=2048, bias=True)
            (gelu): QuickGELU()
            (c_proj): Linear(in_features=2048, out_features=512, bias=True)
          )
          (ln_2): LayerNorm((512,), eps=1e-05, elementwise_affine=True)
        )
      )
    )
    (token_embedding): Embedding(49408, 512)
    (ln_final): LayerNorm((512,), eps=1e-05, elementwise_affine=True)
  )
  (prompt_learner): TextPromptLearner()
)
[01:37:53.686941] ----------------------------------------------------
[01:37:53.686956] Trainable Parameters
[01:37:53.687046] logit_scale
[01:37:53.687061] visual.time_embed
[01:37:53.687071] visual.global_prompts
[01:37:53.687092] visual.blocks.0.local_prompts
[01:37:53.687145] visual.blocks.0.summary_ln.weight
…
