WARNING:__main__:
*****************************************
Setting OMP_NUM_THREADS environment variable for each process to be 1 in default, to avoid your system being overloaded, please further tune the variable for optimal performance in your application as needed. 
*****************************************
[14:49:34.359767] Initializing class-specific contexts
[14:49:34.359961] Initial context: "X X X X X X X X"
[14:49:34.359967] Number of context words (tokens): 8
[14:49:34.570510] VitaCLIP(
  (visual): CLIPVisionEncoder(
    (patch_embed): ImagePatchEmbed2D(
      (proj): Conv2d(3, 768, kernel_size=(16, 16), stride=(16, 16))
    )
    (blocks): ModuleList(
      (0-11): 12 x TransformerEncoderLayer(
        (attn): Attention(
          (q_proj): Linear(in_features=768, out_features=768, bias=True)
          (k_proj): Linear(in_features=768, out_features=768, bias=True)
          (v_proj): Linear(in_features=768, out_features=768, bias=True)
          (out_proj): Linear(in_features=768, out_features=768, bias=True)
        )
        (mlp): Sequential(
          (fc1): Linear(in_features=768, out_features=3072, bias=True)
          (act): QuickGELU()
          (dropout): Dropout(p=0.0, inplace=False)
          (fc2): Linear(in_features=3072, out_features=768, bias=True)
        )
        (norm1): LayerNorm((768,), eps=1e-05, elementwise_affine=True)
        (norm2): LayerNorm((768,), eps=1e-05, elementwise_affine=True)
        (cls_proj): Linear(in_features=768, out_features=768, bias=True)
        (summary_ln): LayerNorm((768,), eps=1e-05, elementwise_affine=True)
        (summary_attn_layer): Attention(
          (q_proj): Linear(in_features=768, out_features=768, bias=True)
          (k_proj): Linear(in_features=768, out_features=768, bias=True)
          (v_proj): Linear(in_features=768, out_features=768, bias=True)
          (out_proj): Linear(in_features=768, out_features=768, bias=True)
        )
      )
    )
    (ln_pre): LayerNorm((768,), eps=1e-05, elementwise_affine=True)
    (ln_post): LayerNorm((768,), eps=1e-05, elementwise_affine=True)
  )
  (textual): CLIPTextEncoder(
    (transformer): Transformer(
      (resblocks): ModuleList(
        (0-11): 12 x ResidualAttentionBlock(
          (attn): MultiheadAttention(
            (out_proj): NonDynamicallyQuantizableLinear(in_features=512, out_features=512, bias=True)
          )
          (ln_1): LayerNorm((512,), eps=1e-05, elementwise_affine=True)
          (mlp): Sequential(
            (c_fc): Linear(in_features=512, out_features=2048, bias=True)
            (gelu): QuickGELU()
            (c_proj): Linear(in_features=2048, out_features=512, bias=True)
          )
          (ln_2): LayerNorm((512,), eps=1e-05, elementwise_affine=True)
        )
      )
    )
    (token_embedding): Embedding(49408, 512)
    (ln_final): LayerNorm((512,), eps=1e-05, elementwise_affine=True)
  )
  (prompt_learner): TextPromptLearner()
)
[14:49:34.571458] ----------------------------------------------------
[14:49:34.571464] Trainable Parameters
[14:49:34.571480] logit_scale
[14:49:34.571488] visual.time_embed
[14:49:34.571493] visual.global_prompts
[14:49:34.571504] visual.blocks.0.local_prompts
[14:49:34.571533] visual.blocks.0.summary_ln.weight
…
